Data Information
    Train data: 58079
    Valid data: 6453
    Test data: 200
----------------------------------------------------------------
        Layer (type)               Output Shape         Param #
================================================================
            Conv2d-1         [-1, 64, 160, 160]           3,136
       BatchNorm2d-2         [-1, 64, 160, 160]             128
              ReLU-3         [-1, 64, 160, 160]               0
         MaxPool2d-4           [-1, 64, 80, 80]               0
            Conv2d-5           [-1, 64, 80, 80]           4,096
       BatchNorm2d-6           [-1, 64, 80, 80]             128
              ReLU-7           [-1, 64, 80, 80]               0
            Conv2d-8           [-1, 64, 80, 80]          36,864
       BatchNorm2d-9           [-1, 64, 80, 80]             128
             ReLU-10           [-1, 64, 80, 80]               0
           Conv2d-11          [-1, 256, 80, 80]          16,384
      BatchNorm2d-12          [-1, 256, 80, 80]             512
           Conv2d-13          [-1, 256, 80, 80]          16,384
      BatchNorm2d-14          [-1, 256, 80, 80]             512
             ReLU-15          [-1, 256, 80, 80]               0
       Bottleneck-16          [-1, 256, 80, 80]               0
           Conv2d-17           [-1, 64, 80, 80]          16,384
      BatchNorm2d-18           [-1, 64, 80, 80]             128
             ReLU-19           [-1, 64, 80, 80]               0
           Conv2d-20           [-1, 64, 80, 80]          36,864
      BatchNorm2d-21           [-1, 64, 80, 80]             128
             ReLU-22           [-1, 64, 80, 80]               0
           Conv2d-23          [-1, 256, 80, 80]          16,384
      BatchNorm2d-24          [-1, 256, 80, 80]             512
             ReLU-25          [-1, 256, 80, 80]               0
       Bottleneck-26          [-1, 256, 80, 80]               0
           Conv2d-27           [-1, 64, 80, 80]          16,384
      BatchNorm2d-28           [-1, 64, 80, 80]             128
             ReLU-29           [-1, 64, 80, 80]               0
           Conv2d-30           [-1, 64, 80, 80]          36,864
      BatchNorm2d-31           [-1, 64, 80, 80]             128
             ReLU-32           [-1, 64, 80, 80]               0
           Conv2d-33          [-1, 256, 80, 80]          16,384
      BatchNorm2d-34          [-1, 256, 80, 80]             512
             ReLU-35          [-1, 256, 80, 80]               0
       Bottleneck-36          [-1, 256, 80, 80]               0
           Conv2d-37          [-1, 128, 80, 80]          32,768
      BatchNorm2d-38          [-1, 128, 80, 80]             256
             ReLU-39          [-1, 128, 80, 80]               0
           Conv2d-40          [-1, 128, 40, 40]         147,456
      BatchNorm2d-41          [-1, 128, 40, 40]             256
             ReLU-42          [-1, 128, 40, 40]               0
           Conv2d-43          [-1, 512, 40, 40]          65,536
      BatchNorm2d-44          [-1, 512, 40, 40]           1,024
           Conv2d-45          [-1, 512, 40, 40]         131,072
      BatchNorm2d-46          [-1, 512, 40, 40]           1,024
             ReLU-47          [-1, 512, 40, 40]               0
       Bottleneck-48          [-1, 512, 40, 40]               0
           Conv2d-49          [-1, 128, 40, 40]          65,536
      BatchNorm2d-50          [-1, 128, 40, 40]             256
             ReLU-51          [-1, 128, 40, 40]               0
           Conv2d-52          [-1, 128, 40, 40]         147,456
      BatchNorm2d-53          [-1, 128, 40, 40]             256
             ReLU-54          [-1, 128, 40, 40]               0
           Conv2d-55          [-1, 512, 40, 40]          65,536
      BatchNorm2d-56          [-1, 512, 40, 40]           1,024
             ReLU-57          [-1, 512, 40, 40]               0
       Bottleneck-58          [-1, 512, 40, 40]               0
           Conv2d-59          [-1, 128, 40, 40]          65,536
      BatchNorm2d-60          [-1, 128, 40, 40]             256
             ReLU-61          [-1, 128, 40, 40]               0
           Conv2d-62          [-1, 128, 40, 40]         147,456
      BatchNorm2d-63          [-1, 128, 40, 40]             256
             ReLU-64          [-1, 128, 40, 40]               0
           Conv2d-65          [-1, 512, 40, 40]          65,536
      BatchNorm2d-66          [-1, 512, 40, 40]           1,024
             ReLU-67          [-1, 512, 40, 40]               0
       Bottleneck-68          [-1, 512, 40, 40]               0
           Conv2d-69          [-1, 128, 40, 40]          65,536
      BatchNorm2d-70          [-1, 128, 40, 40]             256
             ReLU-71          [-1, 128, 40, 40]               0
           Conv2d-72          [-1, 128, 40, 40]         147,456
      BatchNorm2d-73          [-1, 128, 40, 40]             256
             ReLU-74          [-1, 128, 40, 40]               0
           Conv2d-75          [-1, 512, 40, 40]          65,536
      BatchNorm2d-76          [-1, 512, 40, 40]           1,024
             ReLU-77          [-1, 512, 40, 40]               0
       Bottleneck-78          [-1, 512, 40, 40]               0
           Conv2d-79          [-1, 256, 40, 40]         131,072
      BatchNorm2d-80          [-1, 256, 40, 40]             512
             ReLU-81          [-1, 256, 40, 40]               0
           Conv2d-82          [-1, 256, 20, 20]         589,824
      BatchNorm2d-83          [-1, 256, 20, 20]             512
             ReLU-84          [-1, 256, 20, 20]               0
           Conv2d-85         [-1, 1024, 20, 20]         262,144
      BatchNorm2d-86         [-1, 1024, 20, 20]           2,048
           Conv2d-87         [-1, 1024, 20, 20]         524,288
      BatchNorm2d-88         [-1, 1024, 20, 20]           2,048
             ReLU-89         [-1, 1024, 20, 20]               0
       Bottleneck-90         [-1, 1024, 20, 20]               0
           Conv2d-91          [-1, 256, 20, 20]         262,144
      BatchNorm2d-92          [-1, 256, 20, 20]             512
             ReLU-93          [-1, 256, 20, 20]               0
           Conv2d-94          [-1, 256, 20, 20]         589,824
      BatchNorm2d-95          [-1, 256, 20, 20]             512
             ReLU-96          [-1, 256, 20, 20]               0
           Conv2d-97         [-1, 1024, 20, 20]         262,144
      BatchNorm2d-98         [-1, 1024, 20, 20]           2,048
             ReLU-99         [-1, 1024, 20, 20]               0
      Bottleneck-100         [-1, 1024, 20, 20]               0
          Conv2d-101          [-1, 256, 20, 20]         262,144
     BatchNorm2d-102          [-1, 256, 20, 20]             512
            ReLU-103          [-1, 256, 20, 20]               0
          Conv2d-104          [-1, 256, 20, 20]         589,824
     BatchNorm2d-105          [-1, 256, 20, 20]             512
            ReLU-106          [-1, 256, 20, 20]               0
          Conv2d-107         [-1, 1024, 20, 20]         262,144
     BatchNorm2d-108         [-1, 1024, 20, 20]           2,048
            ReLU-109         [-1, 1024, 20, 20]               0
      Bottleneck-110         [-1, 1024, 20, 20]               0
          Conv2d-111          [-1, 256, 20, 20]         262,144
     BatchNorm2d-112          [-1, 256, 20, 20]             512
            ReLU-113          [-1, 256, 20, 20]               0
          Conv2d-114          [-1, 256, 20, 20]         589,824
     BatchNorm2d-115          [-1, 256, 20, 20]             512
            ReLU-116          [-1, 256, 20, 20]               0
          Conv2d-117         [-1, 1024, 20, 20]         262,144
     BatchNorm2d-118         [-1, 1024, 20, 20]           2,048
            ReLU-119         [-1, 1024, 20, 20]               0
      Bottleneck-120         [-1, 1024, 20, 20]               0
          Conv2d-121          [-1, 256, 20, 20]         262,144
     BatchNorm2d-122          [-1, 256, 20, 20]             512
            ReLU-123          [-1, 256, 20, 20]               0
          Conv2d-124          [-1, 256, 20, 20]         589,824
     BatchNorm2d-125          [-1, 256, 20, 20]             512
            ReLU-126          [-1, 256, 20, 20]               0
          Conv2d-127         [-1, 1024, 20, 20]         262,144
     BatchNorm2d-128         [-1, 1024, 20, 20]           2,048
            ReLU-129         [-1, 1024, 20, 20]               0
      Bottleneck-130         [-1, 1024, 20, 20]               0
          Conv2d-131          [-1, 256, 20, 20]         262,144
     BatchNorm2d-132          [-1, 256, 20, 20]             512
            ReLU-133          [-1, 256, 20, 20]               0
          Conv2d-134          [-1, 256, 20, 20]         589,824
     BatchNorm2d-135          [-1, 256, 20, 20]             512
            ReLU-136          [-1, 256, 20, 20]               0
          Conv2d-137         [-1, 1024, 20, 20]         262,144
     BatchNorm2d-138         [-1, 1024, 20, 20]           2,048
            ReLU-139         [-1, 1024, 20, 20]               0
      Bottleneck-140         [-1, 1024, 20, 20]               0
          Conv2d-141          [-1, 512, 20, 20]         524,288
     BatchNorm2d-142          [-1, 512, 20, 20]           1,024
            ReLU-143          [-1, 512, 20, 20]               0
          Conv2d-144          [-1, 512, 10, 10]       2,359,296
     BatchNorm2d-145          [-1, 512, 10, 10]           1,024
            ReLU-146          [-1, 512, 10, 10]               0
          Conv2d-147         [-1, 2048, 10, 10]       1,048,576
     BatchNorm2d-148         [-1, 2048, 10, 10]           4,096
          Conv2d-149         [-1, 2048, 10, 10]       2,097,152
     BatchNorm2d-150         [-1, 2048, 10, 10]           4,096
            ReLU-151         [-1, 2048, 10, 10]               0
      Bottleneck-152         [-1, 2048, 10, 10]               0
          Conv2d-153          [-1, 512, 10, 10]       1,048,576
     BatchNorm2d-154          [-1, 512, 10, 10]           1,024
            ReLU-155          [-1, 512, 10, 10]               0
          Conv2d-156          [-1, 512, 10, 10]       2,359,296
     BatchNorm2d-157          [-1, 512, 10, 10]           1,024
            ReLU-158          [-1, 512, 10, 10]               0
          Conv2d-159         [-1, 2048, 10, 10]       1,048,576
     BatchNorm2d-160         [-1, 2048, 10, 10]           4,096
            ReLU-161         [-1, 2048, 10, 10]               0
      Bottleneck-162         [-1, 2048, 10, 10]               0
          Conv2d-163          [-1, 512, 10, 10]       1,048,576
     BatchNorm2d-164          [-1, 512, 10, 10]           1,024
            ReLU-165          [-1, 512, 10, 10]               0
          Conv2d-166          [-1, 512, 10, 10]       2,359,296
     BatchNorm2d-167          [-1, 512, 10, 10]           1,024
            ReLU-168          [-1, 512, 10, 10]               0
          Conv2d-169         [-1, 2048, 10, 10]       1,048,576
     BatchNorm2d-170         [-1, 2048, 10, 10]           4,096
            ReLU-171         [-1, 2048, 10, 10]               0
      Bottleneck-172         [-1, 2048, 10, 10]               0
AdaptiveAvgPool2d-173           [-1, 2048, 1, 1]               0
          Linear-174                    [-1, 1]           2,049
         Sigmoid-175                    [-1, 1]               0
          ResNet-176                    [-1, 1]               0
        ResNet50-177                    [-1, 1]               0
          Conv2d-178         [-1, 64, 160, 160]           3,136
     BatchNorm2d-179         [-1, 64, 160, 160]             128
            ReLU-180         [-1, 64, 160, 160]               0
       MaxPool2d-181           [-1, 64, 80, 80]               0
          Conv2d-182           [-1, 64, 80, 80]           4,096
     BatchNorm2d-183           [-1, 64, 80, 80]             128
            ReLU-184           [-1, 64, 80, 80]               0
          Conv2d-185           [-1, 64, 80, 80]          36,864
     BatchNorm2d-186           [-1, 64, 80, 80]             128
            ReLU-187           [-1, 64, 80, 80]               0
          Conv2d-188          [-1, 256, 80, 80]          16,384
     BatchNorm2d-189          [-1, 256, 80, 80]             512
          Conv2d-190          [-1, 256, 80, 80]          16,384
     BatchNorm2d-191          [-1, 256, 80, 80]             512
            ReLU-192          [-1, 256, 80, 80]               0
      Bottleneck-193          [-1, 256, 80, 80]               0
          Conv2d-194           [-1, 64, 80, 80]          16,384
     BatchNorm2d-195           [-1, 64, 80, 80]             128
            ReLU-196           [-1, 64, 80, 80]               0
          Conv2d-197           [-1, 64, 80, 80]          36,864
     BatchNorm2d-198           [-1, 64, 80, 80]             128
            ReLU-199           [-1, 64, 80, 80]               0
          Conv2d-200          [-1, 256, 80, 80]          16,384
     BatchNorm2d-201          [-1, 256, 80, 80]             512
            ReLU-202          [-1, 256, 80, 80]               0
      Bottleneck-203          [-1, 256, 80, 80]               0
          Conv2d-204           [-1, 64, 80, 80]          16,384
     BatchNorm2d-205           [-1, 64, 80, 80]             128
            ReLU-206           [-1, 64, 80, 80]               0
          Conv2d-207           [-1, 64, 80, 80]          36,864
     BatchNorm2d-208           [-1, 64, 80, 80]             128
            ReLU-209           [-1, 64, 80, 80]               0
          Conv2d-210          [-1, 256, 80, 80]          16,384
     BatchNorm2d-211          [-1, 256, 80, 80]             512
            ReLU-212          [-1, 256, 80, 80]               0
      Bottleneck-213          [-1, 256, 80, 80]               0
          Conv2d-214          [-1, 128, 80, 80]          32,768
     BatchNorm2d-215          [-1, 128, 80, 80]             256
            ReLU-216          [-1, 128, 80, 80]               0
          Conv2d-217          [-1, 128, 40, 40]         147,456
     BatchNorm2d-218          [-1, 128, 40, 40]             256
            ReLU-219          [-1, 128, 40, 40]               0
          Conv2d-220          [-1, 512, 40, 40]          65,536
     BatchNorm2d-221          [-1, 512, 40, 40]           1,024
          Conv2d-222          [-1, 512, 40, 40]         131,072
     BatchNorm2d-223          [-1, 512, 40, 40]           1,024
            ReLU-224          [-1, 512, 40, 40]               0
      Bottleneck-225          [-1, 512, 40, 40]               0
          Conv2d-226          [-1, 128, 40, 40]          65,536
     BatchNorm2d-227          [-1, 128, 40, 40]             256
            ReLU-228          [-1, 128, 40, 40]               0
          Conv2d-229          [-1, 128, 40, 40]         147,456
     BatchNorm2d-230          [-1, 128, 40, 40]             256
            ReLU-231          [-1, 128, 40, 40]               0
          Conv2d-232          [-1, 512, 40, 40]          65,536
     BatchNorm2d-233          [-1, 512, 40, 40]           1,024
            ReLU-234          [-1, 512, 40, 40]               0
      Bottleneck-235          [-1, 512, 40, 40]               0
          Conv2d-236          [-1, 128, 40, 40]          65,536
     BatchNorm2d-237          [-1, 128, 40, 40]             256
            ReLU-238          [-1, 128, 40, 40]               0
          Conv2d-239          [-1, 128, 40, 40]         147,456
     BatchNorm2d-240          [-1, 128, 40, 40]             256
            ReLU-241          [-1, 128, 40, 40]               0
          Conv2d-242          [-1, 512, 40, 40]          65,536
     BatchNorm2d-243          [-1, 512, 40, 40]           1,024
            ReLU-244          [-1, 512, 40, 40]               0
      Bottleneck-245          [-1, 512, 40, 40]               0
          Conv2d-246          [-1, 128, 40, 40]          65,536
     BatchNorm2d-247          [-1, 128, 40, 40]             256
            ReLU-248          [-1, 128, 40, 40]               0
          Conv2d-249          [-1, 128, 40, 40]         147,456
     BatchNorm2d-250          [-1, 128, 40, 40]             256
            ReLU-251          [-1, 128, 40, 40]               0
          Conv2d-252          [-1, 512, 40, 40]          65,536
     BatchNorm2d-253          [-1, 512, 40, 40]           1,024
            ReLU-254          [-1, 512, 40, 40]               0
      Bottleneck-255          [-1, 512, 40, 40]               0
          Conv2d-256          [-1, 256, 40, 40]         131,072
     BatchNorm2d-257          [-1, 256, 40, 40]             512
            ReLU-258          [-1, 256, 40, 40]               0
          Conv2d-259          [-1, 256, 20, 20]         589,824
     BatchNorm2d-260          [-1, 256, 20, 20]             512
            ReLU-261          [-1, 256, 20, 20]               0
          Conv2d-262         [-1, 1024, 20, 20]         262,144
     BatchNorm2d-263         [-1, 1024, 20, 20]           2,048
          Conv2d-264         [-1, 1024, 20, 20]         524,288
     BatchNorm2d-265         [-1, 1024, 20, 20]           2,048
            ReLU-266         [-1, 1024, 20, 20]               0
      Bottleneck-267         [-1, 1024, 20, 20]               0
          Conv2d-268          [-1, 256, 20, 20]         262,144
     BatchNorm2d-269          [-1, 256, 20, 20]             512
            ReLU-270          [-1, 256, 20, 20]               0
          Conv2d-271          [-1, 256, 20, 20]         589,824
     BatchNorm2d-272          [-1, 256, 20, 20]             512
            ReLU-273          [-1, 256, 20, 20]               0
          Conv2d-274         [-1, 1024, 20, 20]         262,144
     BatchNorm2d-275         [-1, 1024, 20, 20]           2,048
            ReLU-276         [-1, 1024, 20, 20]               0
      Bottleneck-277         [-1, 1024, 20, 20]               0
          Conv2d-278          [-1, 256, 20, 20]         262,144
     BatchNorm2d-279          [-1, 256, 20, 20]             512
            ReLU-280          [-1, 256, 20, 20]               0
          Conv2d-281          [-1, 256, 20, 20]         589,824
     BatchNorm2d-282          [-1, 256, 20, 20]             512
            ReLU-283          [-1, 256, 20, 20]               0
          Conv2d-284         [-1, 1024, 20, 20]         262,144
     BatchNorm2d-285         [-1, 1024, 20, 20]           2,048
            ReLU-286         [-1, 1024, 20, 20]               0
      Bottleneck-287         [-1, 1024, 20, 20]               0
          Conv2d-288          [-1, 256, 20, 20]         262,144
     BatchNorm2d-289          [-1, 256, 20, 20]             512
            ReLU-290          [-1, 256, 20, 20]               0
          Conv2d-291          [-1, 256, 20, 20]         589,824
     BatchNorm2d-292          [-1, 256, 20, 20]             512
            ReLU-293          [-1, 256, 20, 20]               0
          Conv2d-294         [-1, 1024, 20, 20]         262,144
     BatchNorm2d-295         [-1, 1024, 20, 20]           2,048
            ReLU-296         [-1, 1024, 20, 20]               0
      Bottleneck-297         [-1, 1024, 20, 20]               0
          Conv2d-298          [-1, 256, 20, 20]         262,144
     BatchNorm2d-299          [-1, 256, 20, 20]             512
            ReLU-300          [-1, 256, 20, 20]               0
          Conv2d-301          [-1, 256, 20, 20]         589,824
     BatchNorm2d-302          [-1, 256, 20, 20]             512
            ReLU-303          [-1, 256, 20, 20]               0
          Conv2d-304         [-1, 1024, 20, 20]         262,144
     BatchNorm2d-305         [-1, 1024, 20, 20]           2,048
            ReLU-306         [-1, 1024, 20, 20]               0
      Bottleneck-307         [-1, 1024, 20, 20]               0
          Conv2d-308          [-1, 256, 20, 20]         262,144
     BatchNorm2d-309          [-1, 256, 20, 20]             512
            ReLU-310          [-1, 256, 20, 20]               0
          Conv2d-311          [-1, 256, 20, 20]         589,824
     BatchNorm2d-312          [-1, 256, 20, 20]             512
            ReLU-313          [-1, 256, 20, 20]               0
          Conv2d-314         [-1, 1024, 20, 20]         262,144
     BatchNorm2d-315         [-1, 1024, 20, 20]           2,048
            ReLU-316         [-1, 1024, 20, 20]               0
      Bottleneck-317         [-1, 1024, 20, 20]               0
          Conv2d-318          [-1, 512, 20, 20]         524,288
     BatchNorm2d-319          [-1, 512, 20, 20]           1,024
            ReLU-320          [-1, 512, 20, 20]               0
          Conv2d-321          [-1, 512, 10, 10]       2,359,296
     BatchNorm2d-322          [-1, 512, 10, 10]           1,024
            ReLU-323          [-1, 512, 10, 10]               0
          Conv2d-324         [-1, 2048, 10, 10]       1,048,576
     BatchNorm2d-325         [-1, 2048, 10, 10]           4,096
          Conv2d-326         [-1, 2048, 10, 10]       2,097,152
     BatchNorm2d-327         [-1, 2048, 10, 10]           4,096
            ReLU-328         [-1, 2048, 10, 10]               0
      Bottleneck-329         [-1, 2048, 10, 10]               0
          Conv2d-330          [-1, 512, 10, 10]       1,048,576
     BatchNorm2d-331          [-1, 512, 10, 10]           1,024
            ReLU-332          [-1, 512, 10, 10]               0
          Conv2d-333          [-1, 512, 10, 10]       2,359,296
     BatchNorm2d-334          [-1, 512, 10, 10]           1,024
            ReLU-335          [-1, 512, 10, 10]               0
          Conv2d-336         [-1, 2048, 10, 10]       1,048,576
     BatchNorm2d-337         [-1, 2048, 10, 10]           4,096
            ReLU-338         [-1, 2048, 10, 10]               0
      Bottleneck-339         [-1, 2048, 10, 10]               0
          Conv2d-340          [-1, 512, 10, 10]       1,048,576
     BatchNorm2d-341          [-1, 512, 10, 10]           1,024
            ReLU-342          [-1, 512, 10, 10]               0
          Conv2d-343          [-1, 512, 10, 10]       2,359,296
     BatchNorm2d-344          [-1, 512, 10, 10]           1,024
            ReLU-345          [-1, 512, 10, 10]               0
          Conv2d-346         [-1, 2048, 10, 10]       1,048,576
     BatchNorm2d-347         [-1, 2048, 10, 10]           4,096
            ReLU-348         [-1, 2048, 10, 10]               0
      Bottleneck-349         [-1, 2048, 10, 10]               0
AdaptiveAvgPool2d-350           [-1, 2048, 1, 1]               0
          Linear-351                    [-1, 1]           2,049
         Sigmoid-352                    [-1, 1]               0
          ResNet-353                    [-1, 1]               0
        ResNet50-354                    [-1, 1]               0
================================================================
Total params: 47,007,618
Trainable params: 47,007,618
Non-trainable params: 0
----------------------------------------------------------------
Input size (MB): 0.39
Forward/backward pass size (MB): 1169.56
Params size (MB): 179.32
Estimated Total Size (MB): 1349.27
----------------------------------------------------------------
[ Start training ]
…
