Unet training with CHN data.
Data Information
    Train data: 452
    Valid data: 57
    Test data: 57
----------------------------------------------------------------
        Layer (type)               Output Shape         Param #
================================================================
            Conv2d-1         [-1, 32, 512, 512]             320
              ReLU-2         [-1, 32, 512, 512]               0
            Conv2d-3         [-1, 32, 512, 512]           9,248
              ReLU-4         [-1, 32, 512, 512]               0
        Downsample-5         [-1, 32, 512, 512]               0
         MaxPool2d-6         [-1, 32, 256, 256]               0
            Conv2d-7         [-1, 64, 256, 256]          18,496
              ReLU-8         [-1, 64, 256, 256]               0
            Conv2d-9         [-1, 64, 256, 256]          36,928
             ReLU-10         [-1, 64, 256, 256]               0
       Downsample-11         [-1, 64, 256, 256]               0
        MaxPool2d-12         [-1, 64, 128, 128]               0
           Conv2d-13        [-1, 128, 128, 128]          73,856
             ReLU-14        [-1, 128, 128, 128]               0
           Conv2d-15        [-1, 128, 128, 128]         147,584
             ReLU-16        [-1, 128, 128, 128]               0
       Downsample-17        [-1, 128, 128, 128]               0
        MaxPool2d-18          [-1, 128, 64, 64]               0
           Conv2d-19          [-1, 256, 64, 64]         295,168
             ReLU-20          [-1, 256, 64, 64]               0
           Conv2d-21          [-1, 256, 64, 64]         590,080
             ReLU-22          [-1, 256, 64, 64]               0
       Downsample-23          [-1, 256, 64, 64]               0
        MaxPool2d-24          [-1, 256, 32, 32]               0
           Conv2d-25          [-1, 512, 32, 32]       1,180,160
             ReLU-26          [-1, 512, 32, 32]               0
           Conv2d-27          [-1, 512, 32, 32]       2,359,808
             ReLU-28          [-1, 512, 32, 32]               0
       Downsample-29          [-1, 512, 32, 32]               0
  ConvTranspose2d-30          [-1, 256, 64, 64]         524,544
           Conv2d-31          [-1, 256, 64, 64]       1,179,904
             ReLU-32          [-1, 256, 64, 64]               0
           Conv2d-33          [-1, 256, 64, 64]         590,080
             ReLU-34          [-1, 256, 64, 64]               0
         Upsample-35          [-1, 256, 64, 64]               0
  ConvTranspose2d-36        [-1, 128, 128, 128]         131,200
           Conv2d-37        [-1, 128, 128, 128]         295,040
             ReLU-38        [-1, 128, 128, 128]               0
           Conv2d-39        [-1, 128, 128, 128]         147,584
             ReLU-40        [-1, 128, 128, 128]               0
         Upsample-41        [-1, 128, 128, 128]               0
  ConvTranspose2d-42         [-1, 64, 256, 256]          32,832
           Conv2d-43         [-1, 64, 256, 256]          73,792
             ReLU-44         [-1, 64, 256, 256]               0
           Conv2d-45         [-1, 64, 256, 256]          36,928
             ReLU-46         [-1, 64, 256, 256]               0
         Upsample-47         [-1, 64, 256, 256]               0
  ConvTranspose2d-48         [-1, 32, 512, 512]           8,224
           Conv2d-49         [-1, 32, 512, 512]          18,464
             ReLU-50         [-1, 32, 512, 512]               0
           Conv2d-51         [-1, 32, 512, 512]           9,248
             ReLU-52         [-1, 32, 512, 512]               0
         Upsample-53         [-1, 32, 512, 512]               0
           Conv2d-54          [-1, 1, 512, 512]              33
          Sigmoid-55          [-1, 1, 512, 512]               0
             UNet-56          [-1, 1, 512, 512]               0
           Conv2d-57         [-1, 32, 512, 512]             320
             ReLU-58         [-1, 32, 512, 512]               0
           Conv2d-59         [-1, 32, 512, 512]           9,248
             ReLU-60         [-1, 32, 512, 512]               0
       Downsample-61         [-1, 32, 512, 512]               0
        MaxPool2d-62         [-1, 32, 256, 256]               0
           Conv2d-63         [-1, 64, 256, 256]          18,496
             ReLU-64         [-1, 64, 256, 256]               0
           Conv2d-65         [-1, 64, 256, 256]          36,928
             ReLU-66         [-1, 64, 256, 256]               0
       Downsample-67         [-1, 64, 256, 256]               0
        MaxPool2d-68         [-1, 64, 128, 128]               0
           Conv2d-69        [-1, 128, 128, 128]          73,856
             ReLU-70        [-1, 128, 128, 128]               0
           Conv2d-71        [-1, 128, 128, 128]         147,584
             ReLU-72        [-1, 128, 128, 128]               0
       Downsample-73        [-1, 128, 128, 128]               0
        MaxPool2d-74          [-1, 128, 64, 64]               0
           Conv2d-75          [-1, 256, 64, 64]         295,168
             ReLU-76          [-1, 256, 64, 64]               0
           Conv2d-77          [-1, 256, 64, 64]         590,080
             ReLU-78          [-1, 256, 64, 64]               0
       Downsample-79          [-1, 256, 64, 64]               0
        MaxPool2d-80          [-1, 256, 32, 32]               0
           Conv2d-81          [-1, 512, 32, 32]       1,180,160
             ReLU-82          [-1, 512, 32, 32]               0
           Conv2d-83          [-1, 512, 32, 32]       2,359,808
             ReLU-84          [-1, 512, 32, 32]               0
       Downsample-85          [-1, 512, 32, 32]               0
  ConvTranspose2d-86          [-1, 256, 64, 64]         524,544
           Conv2d-87          [-1, 256, 64, 64]       1,179,904
             ReLU-88          [-1, 256, 64, 64]               0
           Conv2d-89          [-1, 256, 64, 64]         590,080
             ReLU-90          [-1, 256, 64, 64]               0
         Upsample-91          [-1, 256, 64, 64]               0
  ConvTranspose2d-92        [-1, 128, 128, 128]         131,200
           Conv2d-93        [-1, 128, 128, 128]         295,040
             ReLU-94        [-1, 128, 128, 128]               0
           Conv2d-95        [-1, 128, 128, 128]         147,584
             ReLU-96        [-1, 128, 128, 128]               0
         Upsample-97        [-1, 128, 128, 128]               0
  ConvTranspose2d-98         [-1, 64, 256, 256]          32,832
           Conv2d-99         [-1, 64, 256, 256]          73,792
            ReLU-100         [-1, 64, 256, 256]               0
          Conv2d-101         [-1, 64, 256, 256]          36,928
            ReLU-102         [-1, 64, 256, 256]               0
        Upsample-103         [-1, 64, 256, 256]               0
 ConvTranspose2d-104         [-1, 32, 512, 512]           8,224
          Conv2d-105         [-1, 32, 512, 512]          18,464
            ReLU-106         [-1, 32, 512, 512]               0
          Conv2d-107         [-1, 32, 512, 512]           9,248
            ReLU-108         [-1, 32, 512, 512]               0
        Upsample-109         [-1, 32, 512, 512]               0
          Conv2d-110          [-1, 1, 512, 512]              33
         Sigmoid-111          [-1, 1, 512, 512]               0
            UNet-112          [-1, 1, 512, 512]               0
================================================================
Total params: 15,519,042
Trainable params: 15,519,042
Non-trainable params: 0
----------------------------------------------------------------
Input size (MB): 1.00
Forward/backward pass size (MB): 2752.00
Params size (MB): 59.20
Estimated Total Size (MB): 2812.20
----------------------------------------------------------------
[ Start training ]
…
